…
2021-10-23 17:52:45,164 (convnet:71) INFO: features.25.bias -> features.conv4_4.bias
2021-10-23 17:52:45,164 (convnet:71) INFO: features.28.weight -> features.conv5_1.weight
2021-10-23 17:52:45,168 (convnet:71) INFO: features.28.bias -> features.conv5_1.bias
2021-10-23 17:52:45,168 (convnet:71) INFO: features.30.weight -> features.conv5_2.weight
2021-10-23 17:52:45,171 (convnet:71) INFO: features.30.bias -> features.conv5_2.bias
THCudaCheck FAIL file=/opt/conda/conda-bld/pytorch_1544174967633/work/aten/src/THC/THCGeneral.cpp line=405 error=11 : invalid argument
2021-10-23 17:52:45,255 (train:84) INFO: ConvNet(
  (RCNN_3d): Sequential(
    (0): Conv3d(512, 512, kernel_size=(8, 1, 1), stride=(1, 1, 1), padding=(4, 0, 0))
    (1): MaxPool3d(kernel_size=(8, 1, 1), stride=(8, 1, 1), padding=(4, 0, 0), dilation=1, ceil_mode=False)
  )
  (RCNN_rpn): RPN(
    (feature): Sequential(
      (0): Conv3d(512, 512, kernel_size=(3, 3, 3), stride=(1, 2, 2), padding=(1, 1, 1))
      (1): Conv3d(512, 512, kernel_size=(3, 3, 3), stride=(1, 2, 2), padding=(1, 1, 1))
      (2): AdaptiveMaxPool3d(output_size=(None, 1, 1))
    )
    (anchor_scorer): Conv3d(512, 36, kernel_size=(1, 1, 1), stride=(1, 1, 1))
    (delta_predictor): Conv3d(512, 36, kernel_size=(1, 1, 1), stride=(1, 1, 1))
  )
  (fsr): FSR(
    (encoder): AttnEncoder(
      (encoder_cell): AttnEncoderCell(
        (rnn_cell): LSTMCell(512, 512)
        (tanh): Tanh()
      )
      (lt): Linear(in_features=512, out_features=32, bias=True)
      (classifier): Softmax()
    )
    (ctc_loss): CTCLoss(
      (ctc_loss): CTCLoss()
    )
  )
  (pose_estimate): PoseEstimator(
    (conv): Sequential(
      (0): ConvTranspose2d(512, 128, kernel_size=(3, 3), stride=(2, 2))
      (1): ReLU()
      (2): Conv2d(128, 67, kernel_size=(3, 3), stride=(1, 1), padding=(1, 1))
      (3): ReLU()
    )
  )
  (features): Sequential(
    (conv1_1): Conv2d(3, 64, kernel_size=(3, 3), stride=(1, 1), padding=(1, 1))
    (relu_conv1_1): ReLU(inplace)
    (conv1_2): Conv2d(64, 64, kernel_size=(3, 3), stride=(1, 1), padding=(1, 1))
    (relu_conv1_2): ReLU(inplace)
    (pool1_stage1): MaxPool2d(kernel_size=2, stride=2, padding=0, dilation=1, ceil_mode=False)
    (conv2_1): Conv2d(64, 128, kernel_size=(3, 3), stride=(1, 1), padding=(1, 1))
    (relu_conv2_1): ReLU(inplace)
    (conv2_2): Conv2d(128, 128, kernel_size=(3, 3), stride=(1, 1), padding=(1, 1))
    (relu_conv2_2): ReLU(inplace)
    (pool2_stage1): MaxPool2d(kernel_size=2, stride=2, padding=0, dilation=1, ceil_mode=False)
    (conv3_1): Conv2d(128, 256, kernel_size=(3, 3), stride=(1, 1), padding=(1, 1))
    (relu_conv3_1): ReLU(inplace)
    (conv3_2): Conv2d(256, 256, kernel_size=(3, 3), stride=(1, 1), padding=(1, 1))
    (relu_conv3_2): ReLU(inplace)
    (conv3_3): Conv2d(256, 256, kernel_size=(3, 3), stride=(1, 1), padding=(1, 1))
    (relu_conv3_3): ReLU(inplace)
    (conv3_4): Conv2d(256, 256, kernel_size=(3, 3), stride=(1, 1), padding=(1, 1))
    (relu_conv3_4): ReLU(inplace)
    (pool3_stage1): MaxPool2d(kernel_size=2, stride=2, padding=0, dilation=1, ceil_mode=False)
    (conv4_1): Conv2d(256, 512, kernel_size=(3, 3), stride=(1, 1), padding=(1, 1))
    (relu_conv4_1): ReLU(inplace)
    (conv4_2): Conv2d(512, 512, kernel_size=(3, 3), stride=(1, 1), padding=(1, 1))
    (relu_conv4_2): ReLU(inplace)
    (conv4_3): Conv2d(512, 512, kernel_size=(3, 3), stride=(1, 1), padding=(1, 1))
    (relu_conv4_3): ReLU(inplace)
    (conv4_4): Conv2d(512, 512, kernel_size=(3, 3), stride=(1, 1), padding=(1, 1))
    (relu_conv4_4): ReLU(inplace)
    (conv5_1): Conv2d(512, 512, kernel_size=(3, 3), stride=(1, 1), padding=(1, 1))
    (relu_conv5_1): ReLU(inplace)
    (conv5_2): Conv2d(512, 512, kernel_size=(3, 3), stride=(1, 1), padding=(1, 1))
    (relu_conv5_2): ReLU(inplace)
  )
)
Number of data: 2048, video raw width: 640, raw height: 360
Image scale: 0.3 with center cropping
Det sample rate: 1
Initialize seeds and index array
Number of data: 379, video raw width: 640, raw height: 360
Image scale: 0.3 with center cropping
Det sample rate: 1
Initialize seeds and index array
2021-10-23 17:52:45,344 (train:91) INFO: Train: 2048, dev: 379
…
